…
 [0.76190476 0.75196943 0.73907625 0.76622966 0.033672  ]
 [0.75644028 0.74962951 0.73284524 0.75991155 0.04266218]
 [0.75565964 0.76366898 0.74452839 0.76386037 0.05196373]]
训练数据长度是: 3114
shape of x_train: (2488, 60, 5)
shape of x_val: (311, 60, 5)
shape of x_test: (255, 60, 5)
shape of y_train: (2488,)
shape of y_val: (311,)
shape of y_test: (255,)
Model: "sequential"
_________________________________________________________________
 Layer (type)                Output Shape              Param #   
=================================================================
 lstm (LSTM)                 (None, 60, 50)            11200     
                                                                 
 dropout (Dropout)           (None, 60, 50)            0         
                                                                 
 lstm_1 (LSTM)               (None, 60, 50)            20200     
                                                                 
 dropout_1 (Dropout)         (None, 60, 50)            0         
                                                                 
 lstm_2 (LSTM)               (None, 60, 50)            20200     
                                                                 
 dropout_2 (Dropout)         (None, 60, 50)            0         
                                                                 
 lstm_3 (LSTM)               (None, 50)                20200     
                                                                 
 dropout_3 (Dropout)         (None, 50)                0         
                                                                 
 dense (Dense)               (None, 1)                 51        
                                                                 
=================================================================
Total params: 71,851
Trainable params: 71,851
Non-trainable params: 0
_________________________________________________________________
None
           OPERATION           DATA DIMENSIONS   WEIGHTS(N)   WEIGHTS(%)

               Input   #####     60    5
                LSTM   LLLLL -------------------     11200    15.6%
…
20/20 [==============================] - ETA: 0s - loss: 7.1470e-0420/20 [==============================] - 5s 239ms/step - loss: 7.1470e-04 - val_loss: 2.1594e-04
LSTM模型的均方误差是: 0.043078
LSTM模型的均方根误差是: 0.207553
LSTM模型的平均绝对误差是: 0.151047
LSTM模型的R-squared是: 0.903391
Model: "sequential_1"
_________________________________________________________________
 Layer (type)                Output Shape              Param #   
=================================================================
 gru (GRU)                   (None, 60, 50)            8550      
                                                                 
 dropout_4 (Dropout)         (None, 60, 50)            0         
                                                                 
 gru_1 (GRU)                 (None, 60, 50)            15300     
                                                                 
 dropout_5 (Dropout)         (None, 60, 50)            0         
                                                                 
 gru_2 (GRU)                 (None, 60, 50)            15300     
                                                                 
 dropout_6 (Dropout)         (None, 60, 50)            0         
                                                                 
 gru_3 (GRU)                 (None, 50)                15300     
                                                                 
 dropout_7 (Dropout)         (None, 50)                0         
                                                                 
 dense_1 (Dense)             (None, 1)                 51        
                                                                 
=================================================================
Total params: 54,501
Trainable params: 54,501
Non-trainable params: 0
_________________________________________________________________
None
           OPERATION           DATA DIMENSIONS   WEIGHTS(N)   WEIGHTS(%)

               Input   #####     60    5
                 GRU   LLLLL -------------------      8550    15.7%
…
0 [==============================] - ETA: 0s - loss: 7.5976e-0420/20 [==============================] - 5s 248ms/step - loss: 7.5976e-04 - val_loss: 2.8943e-04
Epoch 257: early stopping
GRU模型的均方误差是: 0.041885
GRU模型的均方根误差是: 0.204659
GRU模型的平均绝对误差是: 0.137344
GRU模型的R-squared是: 0.896183
Model: "sequential_2"
_________________________________________________________________
 Layer (type)                Output Shape              Param #   
=================================================================
 bidirectional (Bidirectiona  (None, 60, 100)          22400     
 l)                                                              
                                                                 
 bidirectional_1 (Bidirectio  (None, 60, 100)          60400     
 nal)                                                            
                                                                 
 dropout_8 (Dropout)         (None, 60, 100)           0         
                                                                 
 bidirectional_2 (Bidirectio  (None, 60, 100)          60400     
 nal)                                                            
                                                                 
 bidirectional_3 (Bidirectio  (None, 100)              60400     
 nal)                                                            
                                                                 
 dense_2 (Dense)             (None, 1)                 101       
                                                                 
=================================================================
Total params: 203,701
Trainable params: 203,701
Non-trainable params: 0
_________________________________________________________________
None
           OPERATION           DATA DIMENSIONS   WEIGHTS(N)   WEIGHTS(%)

               Input   #####     60    5
       Bidirectional   ????? -------------------     22400    11.0%
…
